…
Deprecated in favor of operator or tf.math.divide.
2020-09-26 17:17:27.832221: I tensorflow/stream_executor/dso_loader.cc:152] successfully opened CUDA library libcublas.so.10.0 locally
==== the model encoder length is: 114 ====
==== Warnning: you should let max_label_len <= encoder_len ====
__________________________________________________________________________________________________
Layer (type)                    Output Shape         Param #     Connected to                     
==================================================================================================
inputs (InputLayer)             (None, 1200, 80, 1)  0                                            
__________________________________________________________________________________________________
resnet18 (Model)                (None, 38, 3, 512)   11181056    inputs[0][0]                     
__________________________________________________________________________________________________
reshape_1 (Reshape)             (None, 114, 512)     0           resnet18[1][0]                   
__________________________________________________________________________________________________
cnn (Dense)                     (None, 114, 256)     131328      reshape_1[0][0]                  
__________________________________________________________________________________________________
BIGRU1 (Bidirectional)          (None, 114, 256)     787968      cnn[0][0]                        
__________________________________________________________________________________________________
dropout_1 (Dropout)             (None, 114, 256)     0           BIGRU1[0][0]                     
__________________________________________________________________________________________________
BIGRU2 (Bidirectional)          (None, 114, 512)     787968      dropout_1[0][0]                  
__________________________________________________________________________________________________
ctc (Dense)                     (None, 114, 256)     131328      BIGRU2[0][0]                     
__________________________________________________________________________________________________
ACGRU (Bidirectional)           (None, 512)          787968      dropout_1[0][0]                  
__________________________________________________________________________________________________
dropout_2 (Dropout)             (None, 114, 256)     0           ctc[0][0]                        
__________________________________________________________________________________________________
dense_1 (Dense)                 (None, 256)          131328      ACGRU[0][0]                      
__________________________________________________________________________________________________
ctc_pred (Dense)                (None, 114, 1000)    257000      dropout_2[0][0]                  
__________________________________________________________________________________________________
ctc_labels (InputLayer)         (None, 72)           0                                            
__________________________________________________________________________________________________
ctc_input_len (InputLayer)      (None, 1)            0                                            
__________________________________________________________________________________________________
ctc_label_len (InputLayer)      (None, 1)            0                                            
__________________________________________________________________________________________________
dropout_3 (Dropout)             (None, 256)          0           dense_1[0][0]                    
__________________________________________________________________________________________________
ctc_loss (Lambda)               (None, 1)            0           ctc_pred[0][0]                   
                                                                 ctc_labels[0][0]                 
                                                                 ctc_input_len[0][0]              
                                                                 ctc_label_len[0][0]              
__________________________________________________________________________________________________
accent_labels (Dense)           (None, 8)            2056        dropout_3[0][0]                  
==================================================================================================
Total params: 14,198,000
Trainable params: 14,190,192
Non-trainable params: 7,808
__________________________________________________________________________________________________
===== init weights from:/disc1/ARNet/exp/aesrc/003.h5 =====
Epoch 5/30
   iter:000 dev acc: 0.653
…
