…
Deprecated in favor of operator or tf.math.divide.
2020-09-25 22:25:46.076122: I tensorflow/stream_executor/dso_loader.cc:152] successfully opened CUDA library libcublas.so.10.0 locally
==== the model encoder length is: 150 ====
==== Warnning: you should let max_label_len <= encoder_len ====
__________________________________________________________________________________________________
Layer (type)                    Output Shape         Param #     Connected to                     
==================================================================================================
inputs (InputLayer)             (None, 1600, 80, 1)  0                                            
__________________________________________________________________________________________________
resnet18 (Model)                (None, 50, 3, 512)   11181056    inputs[0][0]                     
__________________________________________________________________________________________________
reshape_1 (Reshape)             (None, 150, 512)     0           resnet18[1][0]                   
__________________________________________________________________________________________________
cnn (Dense)                     (None, 150, 256)     131328      reshape_1[0][0]                  
__________________________________________________________________________________________________
BIGRU1 (Bidirectional)          (None, 150, 256)     787968      cnn[0][0]                        
__________________________________________________________________________________________________
dropout_1 (Dropout)             (None, 150, 256)     0           BIGRU1[0][0]                     
__________________________________________________________________________________________________
BIGRU2 (Bidirectional)          (None, 150, 512)     787968      dropout_1[0][0]                  
__________________________________________________________________________________________________
ctc (Dense)                     (None, 150, 256)     131328      BIGRU2[0][0]                     
__________________________________________________________________________________________________
dropout_2 (Dropout)             (None, 150, 256)     0           ctc[0][0]                        
__________________________________________________________________________________________________
ctc_pred (Dense)                (None, 150, 1000)    257000      dropout_2[0][0]                  
__________________________________________________________________________________________________
ctc_labels (InputLayer)         (None, 100)          0                                            
__________________________________________________________________________________________________
ctc_input_len (InputLayer)      (None, 1)            0                                            
__________________________________________________________________________________________________
ctc_label_len (InputLayer)      (None, 1)            0                                            
__________________________________________________________________________________________________
ctc_loss (Lambda)               (None, 1)            0           ctc_pred[0][0]                   
                                                                 ctc_labels[0][0]                 
                                                                 ctc_input_len[0][0]              
                                                                 ctc_label_len[0][0]              
==================================================================================================
…
